embed_model.pt (torch, 104887 bytes, 4 tensors)

input_layer.weight f4 [50, 512]
0	0x3cded4a2	0.027201
1	0xbc4c88fc	-0.0124838315
2	0x3abb5700	0.0014292896
3	0xbd2c5028	-0.04206863
4	0xbc73e166	-0.014885282
5	0xbc0d84e0	-0.008637637
6	0x3cd5a85a	0.026081253
7	0x3c9c544e	0.019083168
8	0x3cb8aca2	0.022543255
9	0xbd256811	-0.04038245
10	0xbba7b448	-0.0051179267
11	0x3c263610	0.010144725
12	0xbbddd5e8	-0.0067698844
13	0xbcec882c	-0.028873526
14	0x3ce5d8fa	0.028057564
15	0xbd24b461	-0.040211085
16	0x3d1b3339	0.037890647
17	0x3cf55592	0.02994803
18	0x3d0fc721	0.035102013
19	0xbc8de6c2	-0.017321948
20	0x3cc7bbc6	0.02438153
21	0x3d21f36b	0.039538782
22	0x3b56bf30	0.0032767765
23	0xbc444408	-0.011979111
24	0xbcca4cee	-0.024694886
25	0x3b703a20	0.003665574
26	0xbcabeb36	-0.02098618
27	0xbcb4bb4a	-0.022061963
28	0x3ac92ea0	0.0015348978
29	0xbc5704ca	-0.0131237
30	0xbd0e8284	-0.03479244
31	0xbc0c8b44	-0.008578125
32	0xba9653a0	-0.0011469014
33	0x3d1c1957	0.038110103
34	0xbd017f1e	-0.03161537
35	0x3c35e97c	0.01110303
36	0xbd00ab20	-0.031413198
37	0xbca67767	-0.020320607
38	0xbd0ce49e	-0.034397714
39	0xbd30e7a4	-0.04318966
40	0xbc904bb0	-0.017614216
41	0xbd182686	-0.037146114
42	0x3cce8e4e	0.02521434
43	0xbc3d370c	-0.011548769
44	0xbd166e51	-0.0367263
45	0x39aee280	0.00033356622
46	0x3d00e151	0.03146488
47	0x3b8bda70	0.004267983
48	0x3cb2b002	0.021812443
49	0x3cca5866	0.024700355
50	0xbd1ec9e6	-0.038766764
51	0xba2418c0	-0.00062597916
52	0xbc009230	-0.007847354
53	0x3acdf020	0.0015711822
54	0x3ca84ae2	0.02054352
55	0xbd0a4e5c	-0.033766136
56	0x3c406c64	0.011744592
57	0x3c634750	0.013871983
58	0x3bf22220	0.007389322
59	0xbd007e0a	-0.0313702
60	0x3d07fdd3	0.03320105
61	0xbd05c276	-0.032656156
62	0x3c36d4d4	0.011159141
63	0xbac39b80	-0.0014923662
64	0x3d0887f3	0.033332776
65	0x3bae6238	0.005321767
66	0xbbc3ae80	-0.0059717298
67	0xb9836300	-0.00025060028
68	0xbcc0a13a	-0.023514379
69	0xbc87af5f	-0.016563116
70	0xbc5cedde	-0.013484446
71	0xbc28f140	-0.010311425
72	0x3cdef62a	0.02721699
73	0x3d0b49d7	0.034005966
74	0xbcf501f9	-0.029908167
75	0x3b830058	0.0039978437
76	0xbd0c5906	-0.034264587
77	0xbcb41f98	-0.021987721
78	0x3cd66b1a	0.026174117
79	0xbba67320	-0.005079642
80	0xbcd6f967	-0.026241971
81	0x3d23dc3f	0.040004965
82	0x3cfb036a	0.030641276
83	0x38513000	4.9874187e-05
84	0x3c285838	0.010274939
85	0xbb380bc0	-0.0028083175
86	0xbcabdfb0	-0.020980686
87	0x3d1be22b	0.038057487
88	0xbc578bc4	-0.013155881
89	0xbcaec426	-0.021333765
90	0xbd220dcd	-0.039563943
91	0x3d0f085f	0.034920093
92	0xbb9a3d10	-0.0047069862
93	0x3c5aa488	0.013344891
94	0xbd2b17d7	-0.041770782
95	0xbc182c84	-0.009287957
96	0xbc84ce5e	-0.016211685
97	0x3c97a732	0.018512342
98	0xbc2c7ebc	-0.010528263
99	0x3d2ef64f	0.042715367
100	0x3b982380	0.004642904
101	0x3cd670fe	0.026176926
102	0xba61e5c0	-0.0008617304
103	0x3c133fc0	0.008987367
104	0x3c82693a	0.015919317
105	0xbd15863a	-0.03650496
106	0xbd08b0e6	-0.03337183
107	0x3c87cd88	0.016577497
108	0x3b0ce910	0.002150122
109	0xbc1134c8	-0.008862682
110	0x3d1added	0.0378093
111	0xbcccd70d	-0.025004888
112	0xbd0bda0b	-0.03414349
113	0xbcb76c88	-0.022390619
114	0x3bd6f8f0	0.0065604374
115	0x3c7c276c	0.015390258
116	0xbc564b34	-0.013079453
117	0xbc0be234	-0.008537818
118	0xbc9fd809	-0.019512193
119	0xbcf597c2	-0.02997959
120	0xbd05098f	-0.03247982
121	0xbc3dd70c	-0.011586916
122	0x3a9c0b80	0.0011905283
123	0x3c5994f8	0.013280146
124	0xbc81ad45	-0.015829692
125	0xbcc57da3	-0.02410776
126	0x3c01e204	0.0079274215
127	0x3ca61c5a	0.020277191
128	0x3ca960ae	0.020675983
129	0x3af9c3a0	0.0019055493
130	0x3c8eca98	0.017430589
131	0x3a02dfc0	0.0004992448
132	0xbc989cc4	-0.01862944
133	0x3d2df623	0.042471062
134	0x39ab0480	0.00032619014
135	0xbd2f2407	-0.042758968
136	0xbc941240	-0.018075109
137	0x3ce041e2	0.027375165
138	0x3c67ffac	0.014160078
139	0x3c640668	0.013917543
140	0x3d285d91	0.041104857
141	0x3cf6b3c2	0.030115012
142	0x3ccbcb9e	0.024877366
143	0x3d10b81f	0.03533184
144	0xbcf5f444	-0.030023701
145	0xbcfda994	-0.03096465
146	0x3d1b83b9	0.037967417
147	0xbd297015	-0.041366655
148	0x3d3465cb	0.04404239
149	0x3d25026f	0.040285524
150	0xbd2e08b3	-0.042488765
151	0x3c72dc64	0.014823053
152	0x3d12b9c9	0.03582171
153	0x3c9fe1e2	0.019516889
154	0x3c6d4298	0.014481209
155	0x3cecbd52	0.028898869
156	0xbd058304	-0.03259565
157	0xbd15d65f	-0.036581393
158	0xb978b700	-0.00023719296
159	0x3d021109	0.031754527
160	0xbcd63049	-0.026146071
161	0x3d33f2cb	0.043932717
162	0xbcb9a40d	-0.022661233
163	0x3d09c781	0.033637527
164	0x3ba91a98	0.005160641
165	0x3c0f6e10	0.008754268
166	0xbd04c880	-0.032417774
167	0x3d16fcf1	0.036862317
168	0x3c73b6fc	0.01487517
169	0x3ccfa782	0.025348429
170	0xbd34fe51	-0.044187848
171	0xbb6f5580	-0.0036519468
172	0xbd001efe	-0.031279556
173	0xbcb74ab9	-0.022374498
174	0x3d085f49	0.033293996
175	0x3bd5d430	0.006525539
176	0x3cdfd2d6	0.027322214
177	0x3d245427	0.040119316
178	0x3cdbf65e	0.026850875
179	0x3d29f95f	0.041497584
180	0x3d2d0539	0.04224131
181	0x3b45e490	0.0030196048
182	0xbb540ac0	-0.003235504
183	0x3d1bb007	0.03800967
184	0x3cc19dc2	0.023634795
185	0x3c5c1d58	0.0134347305
186	0x3c8fa74a	0.017535824
187	0xbd03ee20	-0.032209516
188	0x3c364538	0.0111249015
189	0x3cc2111e	0.023689803
190	0xbc8c4490	-0.017122537
191	0xbd116540	-0.03549695
192	0xbcf38e06	-0.029730808
193	0x3b78d990	0.0037971474
194	0x3cc005f6	0.023440342
195	0x3caa7332	0.020806883
196	0x3d07e5dd	0.0331782
197	0xbd24529c	-0.040117845
198	0x3af80b20	0.0018924214
199	0xbd014059	-0.031555507
200	0xbd0db631	-0.03459758
201	0xbcdd0fab	-0.02698501
202	0x3bb604d8	0.0055547766
203	0xbd13296f	-0.035928186
204	0xbccf06d0	-0.025271803
205	0x3ca97d32	0.02068958
206	0xbd0796b5	-0.03310271
207	0x3caecef2	0.021338914
208	0x3b6f62c0	0.0036527365
209	0x3c82f610	0.015986472
210	0xbcb5ead0	-0.022206694
211	0xbd0a5622	-0.03377355
212	0x3c5d4bb0	0.013506815
213	0x3c1882f0	0.009308562
214	0xbcda5237	-0.026650531
215	0x3c26a770	0.010171756
216	0x3ba5ff50	0.005065836
217	0x3d1b10dd	0.03785788
218	0xbd23abf3	-0.039958905
219	0x3d29c4c9	0.041447435
220	0xbaef9260	-0.0018277876
221	0xbd305ea7	-0.043059018
222	0x3bbf6e40	0.0058420002
223	0x3c98fdee	0.01867577
224	0x3c6ec5dc	0.014573541
225	0x3d2254ad	0.039631534
226	0xbd10ccff	-0.03535175
227	0x3d0a1679	0.033712838
228	0x3bbde920	0.005795613
229	0x3cdf48ea	0.027256448
230	0x3d0ec1a3	0.034852635
231	0x3c50e694	0.012750287
232	0x3c36de40	0.011161387
233	0xbb9389a8	-0.004502494
234	0xbcba9809	-0.022777574
235	0xbce51920	-0.027966082
236	0xbb3deb40	-0.0028979331
237	0x3cb72636	0.022357088
238	0xbc674e94	-0.014117856
239	0xbcec10a3	-0.028816527
240	0xbcb6092d	-0.022221172
241	0xbd0ff3eb	-0.035144728
242	0xbc952d99	-0.01821022
243	0xbc747d34	-0.014922429
244	0xbc04d73c	-0.0081079565
245	0xbb4a6250	-0.0030881353
246	0xbd2e30ec	-0.042527124
247	0xbb8eb598	-0.0043551438
248	0xbc407e90	-0.011748925
249	0x3c7611d8	0.015018903
250	0xbd3270a6	-0.04356446
251	0xbc2bfdcc	-0.010497522
252	0x3c918ffa	0.017768849
253	0xbd0fc641	-0.03510118
254	0x3c2c3d5c	0.010512676
255	0x3cfd6916	0.030933898

input_layer.bias f4 [50]
0	0xbd01b1a7	-0.031663563
1	0x3b1c16c0	0.002381727
2	0x3c9bf3ae	0.019037094
3	0xbc925569	-0.017862992
4	0xbc24af50	-0.010051563
5	0xbcbb8bff	-0.022893904
6	0x3be7bdc8	0.0070721842
7	0x3c41bacc	0.011824321
8	0x3cbba1ca	0.022904295
9	0x3a8fbfc0	0.001096718
10	0xbcbcfb84	-0.02306915
11	0x3d000f5f	0.03126466
12	0xbcbdb1f6	-0.023156147
13	0xbca75304	-0.020425327
14	0xbd214b9c	-0.039378747
15	0x3bd6e440	0.0065579712
16	0x3ca3dcfa	0.02000283
17	0x3d08e6cb	0.033423226
18	0x3c4c74c4	0.012479011
19	0x3d339a6f	0.04384845
20	0x3bad9568	0.0052973516
21	0xbcd931c8	-0.026512995
22	0xbd2f13d3	-0.042743515
23	0xbd2998fc	-0.041405663
24	0xbc9d0ea8	-0.019172028
25	0x3d103ec1	0.035216097
26	0x3d34d8e3	0.04415215
27	0x3d1f1aed	0.038844038
28	0xbcd49251	-0.025948675
29	0x3d0c1cdb	0.034207206
30	0xbca6d38c	-0.020364545
31	0x3c4ae180	0.012382865
32	0x39567700	0.00020452961
33	0x3d0255ff	0.031820294
34	0xbcbaaf26	-0.022788595
35	0x3a6070c0	0.0008561723
36	0xbd112c96	-0.03544291
37	0xbcef8c22	-0.029241625
38	0x3cd9d94e	0.026592877
39	0x3bff7ed8	0.0077971034
40	0xbcfe6fe7	-0.031059219
41	0xbd0a32e5	-0.033739943
42	0x3d30bbcf	0.04314786
43	0xbd05ffd6	-0.032714687
44	0x3b94d0c0	0.0045414865
45	0x3cd074f2	0.025446389
46	0xbcb84dfa	-0.02249812
47	0xbc521d98	-0.0128244385
48	0x3c8c097e	0.01709437
49	0x3ca8ebd6	0.020620268

output_layer.weight f4 [3, 50]
0	0xbdef3d9d	-0.11681674
1	0xbd81616a	-0.063174084
2	0xbe05697b	-0.13028519
3	0x3df6168a	0.12016018
4	0x3dc8e55a	0.0980937
5	0x3cc22f18	0.023704097
6	0x3d2c6900	0.042092323
7	0xbd164c82	-0.036694057
8	0xbd6d2e4a	-0.057905473
9	0x3e0bbd6d	0.13646479
10	0xbdf216c8	-0.118207514
11	0x3db560e8	0.08856374
12	0x3bf41f00	0.0074499846
13	0x3cca58e0	0.024700582
14	0xbddf618c	-0.109072775
15	0x3db691ce	0.08914529
16	0xbd1d5bd6	-0.03841766
17	0xbe0f7646	-0.14009961
18	0x3daf43ae	0.08557831
19	0x3d3c0338	0.045901507
20	0x3ca16508	0.019701496
21	0x3c6e7680	0.01455462
22	0x3df54102	0.1197529
23	0x3cc708a8	0.02429612
24	0x3db9210e	0.09039508
25	0x3daee5ae	0.08539902
26	0x3cfaa3e0	0.03059572
27	0x3c7e7a10	0.015532032
28	0x3c3f4320	0.011673719
29	0x3dc09d22	0.09404971
30	0x3db65b68	0.08904153
31	0x3e08e8c9	0.1337005
32	0x3e04f269	0.12983097
33	0x3cacd0e8	0.021095708
34	0xbe0d7ce9	-0.1381718
35	0x3e08468b	0.1330816
36	0xbdbf307c	-0.093354195
37	0x3caced60	0.021109283
38	0x3dcea480	0.1008997
39	0x3daf245a	0.085518554
40	0x3c7135b0	0.014722273
41	0xbe0c74e5	-0.13716467
42	0xbdde8afc	-0.10866353
43	0x3de18c0e	0.110130414
44	0xbc38f8f0	-0.01128982
45	0x3d661380	0.05617094
46	0xbe102200	-0.1407547
47	0x3c255ca0	0.010092884
48	0xbd403a20	-0.046930432
49	0x3b1dc8c0	0.0024075955
50	0x3dd1de06	0.10247426
51	0xbd72c19e	-0.05926668
52	0x3df3288e	0.118729696
53	0x3db341fe	0.087528214
54	0x3d8bf26c	0.06833348
55	0x3db45440	0.08805132
56	0xbca17e98	-0.019713685
57	0xbd55d63a	-0.052206255
58	0xbdfa0f8e	-0.12209998
59	0xbc512f40	-0.012767613
60	0xbd2597ec	-0.040428087
61	0xbd1fddd2	-0.039029904
62	0xbd0b28a8	-0.03397432
63	0xbdc24a48	-0.09486824
64	0x3d8ac866	0.06776504
65	0x3d2a8a08	0.041635543
66	0x3bcb9aa0	0.006213501
67	0x3bcdf960	0.0062858313
68	0xbd15d1ea	-0.036577143
69	0xbe014c3d	-0.12626739
70	0xbd9dc9fb	-0.0770454
71	0x3de45ef2	0.11150922
72	0xbdeef47c	-0.116677254
73	0xbda9f56c	-0.08298764
74	0xbc3e0c50	-0.011599615
75	0xbd1693ca	-0.036762036
76	0xbd7c791e	-0.061638944
77	0x3b93a0c0	0.004505247
78	0xbd938f8e	-0.07205115
79	0x3d027630	0.031850994
80	0x3d2720f8	0.040802926
81	0xbd3ce470	-0.046116292
82	0xbdeace29	-0.11465103
83	0x3c2a7950	0.0104049
84	0xbb8abf80	-0.0042342544
85	0x3dd1e34e	0.10248433
86	0x3dd41db4	0.10357228
87	0xbdc6e666	-0.09711914
88	0x3db1a47a	0.086739495
89	0xbdfe115b	-0.12405654
90	0xbd905ce5	-0.07048968
91	0x3d708964	0.058724776
92	0xbdb7c20e	-0.0897256
93	0xbd9bf22a	-0.076145485
94	0x3de13946	0.10997252
95	0x3cb9e9f0	0.022694558
96	0xbdcb8225	-0.099369325
97	0xbdc54a77	-0.09633344
98	0xbe0f8c3e	-0.14018342
99	0xbe082a7f	-0.13297461
100	0xbdbde9e2	-0.09273125
101	0xbdbc943c	-0.09207961
102	0xbde2f54a	-0.110819414
103	0xbd16521e	-0.036699407
104	0xbdd8992b	-0.105760895
105	0x3d26ac0c	0.04069142
106	0xbdc80b38	-0.09767765
107	0xbdbe5708	-0.09293944
108	0x3e0d069d	0.13772054
109	0xbdbdb242	-0.092625156
110	0x3e001087	0.12506305
111	0xbd821ae8	-0.06352788
112	0x3a6fb700	0.00091443956
113	0x3da8e070	0.08245933
114	0x3de7b3d6	0.11313598
115	0x3d246498	0.040134996
116	0x3dc5ac2a	0.09651978
117	0x3da8537e	0.0821905
118	0xbe0e5d5f	-0.13902806
119	0x3d91e1ea	0.07123168
120	0x3d86f46c	0.065895885
121	0x3d7bf5b0	0.061513603
122	0x3e0f4ca7	0.13994084
123	0x3d0ff9c4	0.035150304
124	0x3d6329e4	0.055459872
125	0x3de12566	0.10993461
126	0x3dbe298e	0.0928527
127	0xbb2c0740	-0.0026249439
128	0xbd9b362c	-0.07578692
129	0x3df31e7a	0.11871047
130	0xbe0ff88e	-0.1405966
131	0x3d29feac	0.04150264
132	0x3dee794e	0.11644231
133	0x3dd0acc0	0.101891994
134	0xbd72c5f0	-0.0592708
135	0xbd06ac56	-0.032879196
136	0x3d132ec0	0.035933256
137	0x3d7e53a0	0.06209147
138	0xbdce8a54	-0.10084978
139	0xbdd30ae5	-0.10304812
140	0xbcc82400	-0.024431229
141	0xbd3eb27e	-0.046556942
142	0xbd2db934	-0.04241295
143	0xbdfb7a3b	-0.12279173
144	0xbd4b23e4	-0.049594775
145	0xbd7eb9c8	-0.062188894
146	0xbcf24b04	-0.029576786
147	0xbdbf6d4e	-0.0934702
148	0x3dbe23c0	0.092841625
149	0x3df4bf6e	0.11950575

output_layer.bias f4 [3]
0	0xbdefda19	-0.11711521
1	0x3d88e162	0.06683613
2	0x3c8d10a0	0.017219841
